…
ase_uri":"https://localhost:8080/"},"executionInfo":{"elapsed":1325,"status":"ok","timestamp":1651025434165,"user":{"displayName":"Daniel Syahputra Purba","userId":"16062251870246311539"},"user_tz":-420},"id":"ZA9X0lRst8oC","outputId":"f6f20b66-de24-4196-fc6c-3111bf265aa3"},"outputs":[{"output_type":"stream","name":"stdout","text":["Model: \"sequential\"\n","_________________________________________________________________\n"," Layer (type)                Output Shape              Param #   \n","=================================================================\n"," embedding (Embedding)       (None, 1024, 100)         200000    \n","                                                                 \n"," bidirectional (Bidirectiona  (None, 1024, 128)        84480     \n"," l)                                                              \n","                                                                 \n"," dropout (Dropout)           (None, 1024, 128)         0         \n","                                                                 \n"," lstm_1 (LSTM)               (None, 64)                49408     \n","                                                                 \n"," dense (Dense)               (None, 32)                2080      \n","                                                                 \n"," dense_1 (Dense)             (None, 16)                528       \n","                                                                 \n"," dense_2 (Dense)             (None, 1)                 17        \n","                                                                 \n","=================================================================\n","Total params: 336,513\n","Trainable params: 336,513\n","Non-trainable params: 0\n","_________________________________________________________________\n"]}],"source":["import tensorflow as tf\n","\n","# Parameters\n","embedding_dim = 100\n","lstm_d
…
